xiaolan_model.tflite (tflite, 9928 bytes, 7 tensors)

arith.constant f4 [12]
0	0xbd33c823	-0.043892037
1	0xbb2cb509	-0.0026353023
2	0x3d026205	0.03183176
3	0x3d239ee5	0.039946456
4	0x3d81b682	0.06333639
5	0xbcd58be8	-0.026067689
6	0x3d27cc32	0.04096622
7	0x3d5f4843	0.054512274
8	0x370a1980	8.231378e-06
9	0x3d06e0fc	0.032929406
10	0x3d4529f5	0.048135716
11	0xbd0b2714	-0.033972815

arith.constant1 f4 [12, 3, 3, 1]
0	0xbd5082f4	-0.050906137
1	0xbe1b5e93	-0.15172796
2	0xbe22d56f	-0.15901731
3	0x3d394f2e	0.045241527
4	0x3c8a96a0	0.016917527
5	0xbe3fa45e	-0.18715045
6	0x3d9ad63a	0.07560392
7	0xbdda8926	-0.1067069
8	0xbda790c3	-0.08181908
9	0xbcdf1b5e	-0.02723473
10	0xbd09a0c0	-0.03360057
11	0x3ccf1092	0.025276456
12	0xbe157463	-0.1459518
13	0x3d47424f	0.04864722
14	0xbdb24859	-0.087052055
15	0x3e4749db	0.19461767
16	0x3d3d0f7f	0.046157356
17	0xbd4d1fb8	-0.050079077
18	0x3de6e937	0.11274951
19	0xbdd2a1c4	-0.102847606
20	0xbe2b637a	-0.16737166
21	0x3e45c382	0.19312862
22	0xbe250b6e	-0.16117641
23	0x3e4e34f3	0.20137386
24	0x3d911d5b	0.07085677
25	0xbdaefa56	-0.085438415
26	0xbde5d0d3	-0.11221471
27	0xbd9136e4	-0.07090548
28	0xbb278227	-0.0025559755
29	0x3e0de17f	0.13855551
30	0x3d706bac	0.058696434
31	0x3b265bf4	0.0025384398
32	0xbd9430be	-0.07235859
33	0xbd88df10	-0.06683171
34	0xbdb13c41	-0.08654071
35	0x3e0c323f	0.13691042
36	0x3e052171	0.13001038
37	0xbe132062	-0.14367822
38	0xbe3fce9d	-0.1873116
39	0x3c95e1b8	0.018296108
40	0xbc8f5462	-0.017496292
41	0x3d71fe6b	0.059080523
42	0x3dae3a80	0.08507252
43	0xbdc4e394	-0.096137196
44	0x3e284fa5	0.16436632
45	0xbe4fcd7c	-0.2029323
46	0xbe47fad6	-0.1952928
47	0x3e5c5c1c	0.21519512
48	0x3d099446	0.03358867
49	0xba8e4481	-0.0010854156
50	0xbd03e3ef	-0.032199796
51	0xbd903a5f	-0.070423834
52	0xbe52d258	-0.20588052
53	0x3da5eda4	0.08101967
54	0xbe0a7106	-0.13519678
55	0xbd0321bf	-0.032014605
56	0x3dc384cd	0.09546814
57	0x3e2992e9	0.16559948
58	0x3dd3b2ad	0.10336814
59	0x3d1d11e4	0.03834714
60	0xbe12def3	-0.14342861
61	0xbe0183b7	-0.12647901
62	0x3dd3f717	0.10349863
63	0xbe4a373d	-0.19747634
64	0x3d3627b5	0.04447146
65	0x3c3d2e21	0.0115466425
66	0x3e3f8bf7	0.18705736
67	0x3cc4f067	0.024040414
68	0xbe538554	-0.2065633
69	0x3e126ed6	0.14300093
70	0x3e2d8fbf	0.16949366
71	0xbe25e152	-0.16199234
72	0x3e27029d	0.1630959
73	0xbce62293	-0.028092658
74	0xbd38e378	-0.045138806
75	0xbd5b2799	-0.05350456
76	0xbdff73e3	-0.124732755
77	0x3e4b4b32	0.19852903
78	0xbd41f24b	-0.04735021
79	0x3dc4c14d	0.09607182
80	0x3ddd7a48	0.10814339
81	0x3dac15ae	0.084025726
82	0xbde3666e	-0.11103521
83	0x3d6ea2c0	0.05826068
84	0x3e2e58e2	0.17026094
85	0xbe276b2e	-0.1634948
86	0xbe5975c1	-0.21236326
87	0x3e08f0cc	0.13373107
88	0xbc8f7dc0	-0.017516017
89	0x3d86873b	0.06568762
90	0xbe0045ed	-0.12526675
91	0x3dac8304	0.08423427
92	0x3e4f1950	0.202245
93	0xbe73ff0b	-0.2382776
94	0x3d1b1e63	0.037870776
95	0x3e1e1384	0.15437132
96	0x3da83a68	0.08214265
97	0xbe5ea70e	-0.21743414
98	0x3d9980c2	0.07495262
99	0x3da457bc	0.080245465
100	0xbde79762	-0.11308171
101	0xbda7125f	-0.08157801
102	0x3e177874	0.14792043
103	0xbe1f81d4	-0.15576869
104	0x3c3e588c	0.011617791
105	0xbe61c0a5	-0.22046144
106	0x3d3268a4	0.043556824
107	0x3e2617fe	0.1622009

arith.constant3 f4 [32, 24]
0	0x3db11854	0.08647218
1	0xbd9ff3b0	-0.078101516
2	0xbe639152	-0.22223404
3	0x3e9e4756	0.309138
4	0xbe5bdf6e	-0.2147195
5	0xbe7fdc16	-0.249863
6	0x3ce4adf0	0.027914971
7	0x3e44ae60	0.19207144
8	0xbe8f4378	-0.27981162
9	0x3d671740	0.056418657
10	0xbd169e48	-0.036772043
11	0x3e123d9e	0.14281318
12	0x3e1691ce	0.14704058
13	0xbe0ae66a	-0.13564458
14	0x3da917b4	0.08256474
15	0xbe3ece54	-0.18633395
16	0x3e2b6dac	0.16741055
17	0xbdbca51c	-0.092111796
18	0x3ea4ad9a	0.32163697
19	0x3d476138	0.0486767
20	0xbe785b16	-0.24253497
21	0x3db53444	0.088478595
22	0xbe940000	-0.2890625
23	0xbd67fbd0	-0.05663663
24	0xbd9f64c0	-0.077828884
25	0x3e00717c	0.12543291
26	0xbe841667	-0.25798342
27	0xbc974dfc	-0.018469803
28	0xbe893469	-0.26797798
29	0x3e2963a2	0.16541913
30	0xbda93d24	-0.08263615
31	0xbe4df742	-0.20113853
32	0x3d1a0b96	0.037608705
33	0x3d9d9b7d	0.07695673
34	0x3e5449b5	0.20731242
35	0xbd6c8ed0	-0.057753384
36	0xbd81b4bb	-0.063333
37	0xbe2c4e77	-0.16826807
38	0xbd943a6e	-0.07237707
39	0x3c8715bd	0.016489858
40	0xbc1b7772	-0.009488927
41	0x3e0c6773	0.13711338
42	0x3db51edf	0.08843779
43	0x3c8a3fbe	0.016876098
44	0xbda78c59	-0.08181066
45	0xbc868620	-0.016421378
46	0x3cdb8f97	0.026801867
47	0x3e06d1e9	0.13166012
48	0x3caf3146	0.0213858
49	0x3e90e573	0.28300056
50	0xbe308472	-0.17238024
51	0xbe84307f	-0.2581825
52	0xbc3b066c	-0.011415105
53	0xbe959cb2	-0.29221112
54	0x3e8fc071	0.2807651
55	0xbe005f83	-0.12536435
56	0x3e497091	0.19671847
57	0xbeaa53ba	-0.33267003
58	0xbda1b5a6	-0.07895975
59	0xbea2b7e2	-0.31780916
60	0x3e0755b0	0.13216281
61	0x3e918585	0.2842218
62	0xbe07ebef	-0.13273595
63	0xbe0cef21	-0.13763095
64	0xbe9cd8b6	-0.30634087
65	0xbe8e63d7	-0.27810547
66	0xbdfe15b1	-0.12406481
67	0x3e3b1ffe	0.18273923
68	0xbe66caf9	-0.22538365
69	0xbd53b572	-0.05168671
70	0xbdda15ae	-0.10648666
71	0xbe64396d	-0.22287531
72	0x3e7f0e1c	0.24907726
73	0x3e9bbeef	0.30419108
74	0x3dd5d2ff	0.10440635
75	0x3dbb44fd	0.09144018
76	0xbd61e468	-0.055149466
77	0x3a54207f	0.00080920005
78	0xbe4471de	-0.19184062
79	0xbe84393b	-0.25824913
80	0x3e9b60d7	0.3034732
81	0xbe353209	-0.17694868
82	0xbb8127f2	-0.0039415294
83	0x3e86a82f	0.2630019
84	0xbe0ca0a2	-0.13733152
85	0x3e8811cc	0.26576078
86	0xbeafda76	-0.3434636
87	0x3de1171d	0.10990737
88	0x3e1a6818	0.15078771
89	0xbd086f50	-0.03330928
90	0xbe478461	-0.19484092
91	0xbc9c90df	-0.019112049
92	0xbe250d02	-0.16118243
93	0x3e0d3cfb	0.13792793
94	0x3e8433f4	0.25820887
95	0xbdb3ad8b	-0.08773335
96	0x3e68c9e0	0.22733259
97	0x3e360424	0.17775017
98	0x3e1e1e84	0.15441328
99	0xbe9578e9	-0.2919381
100	0xbe5e784e	-0.2172558
101	0xbe7a7a03	-0.24460606
102	0x3e84ffe9	0.25976494
103	0xbb5fd099	-0.0034151434
104	0xbe0989aa	-0.13431421
105	0x3e89c5e6	0.26908797
106	0xbda4666e	-0.080273494
107	0x3d600322	0.054690488
108	0xbefad4c9	-0.48990467
109	0x3d085469	0.033283625
110	0xbe05cf74	-0.13067418
111	0x3df4e1b8	0.11957115
112	0x3d94cc94	0.07265583
113	0x3e82107b	0.254032
114	0xbf0729ee	-0.52798355
115	0x3e1ede48	0.15514481
116	0xbdda5c10	-0.10662091
117	0x3e68e21e	0.22742507
118	0x3ea379cc	0.3192886
119	0xbe4faec6	-0.20281515
120	0x3e07ae92	0.13250187
121	0xbea73336	-0.32656258
122	0xbe0380df	-0.12842129
123	0xbdfa791e	-0.122301325
124	0xbe358236	-0.17725453
125	0x3b434c00	0.0029799938
126	0xbd8a3aa8	-0.06749469
127	0xbe1684bb	-0.1469907
128	0x3e230d16	0.1592296
129	0x3e4a2358	0.19740045
130	0x3e2ad614	0.16683227
131	0x3e03da74	0.12876302
132	0x3d8e39a0	0.06944585
133	0xbdfd741e	-0.12375663
134	0xbcd39560	-0.025828063
135	0x3dc177d4	0.094466835
136	0x3cd8d880	0.026470423
137	0xbe9429cc	-0.28938138
138	0x3e13a5f2	0.14418772
139	0xbdf5ef5a	-0.12008543
140	0x3e47935c	0.19489807
141	0xbdea7324	-0.114477426
142	0x3ea25064	0.31701958
143	0x3e39b8f0	0.18136954
144	0xbd85fab4	-0.065419585
145	0xbea5e503	-0.32401285
146	0x3d82b590	0.063822865
147	0xbde25d7e	-0.110529885
148	0x3dc9cfec	0.09854111
149	0x3e6b8ad0	0.23002172
150	0xbda29ac4	-0.079396755
151	0xbd389440	-0.045063257
152	0x3e965602	0.29362494
153	0xbe942d0f	-0.28940627
154	0xbe42a0ea	-0.19006696
155	0x3c97cb40	0.018529534
156	0xbc9c8d90	-0.019110471
157	0xbdd7152a	-0.105020836
158	0x3d688f98	0.056777567
159	0xbe444cbb	-0.19169895
160	0xbe554ee4	-0.20830876
161	0x3d8d0e00	0.06887436
162	0xbea44fcd	-0.32092133
163	0x3e82db58	0.2555797
164	0x3d98ee54	0.074673325
165	0x3dae819c	0.08520815
166	0xbe8cd0e7	-0.2750313
167	0xbe247b19	-0.16062583
168	0xbe66b230	-0.2252891
169	0x3e60a5e0	0.21938276
170	0x3e6cead0	0.23136449
171	0xbc2b9500	-0.010472536
172	0xbda1cccc	-0.0790039
173	0xbe15f7d1	-0.14645316
174	0xbe6d5b7b	-0.23179428
175	0xbe2a0aaf	-0.16605638
176	0xbd298c48	-0.04139355
177	0xbe957ad9	-0.29195288
178	0xbe5ac776	-0.21365151
179	0xbdd01536	-0.10160296
180	0xbdc1b878	-0.09459013
181	0x3c43d080	0.011951566
182	0xbd92dc3c	-0.071709126
183	0x3e941b1c	0.28926933
184	0xbe6bcab0	-0.23026538
185	0xbe8c25a6	-0.27372473
186	0xbd6ce3b0	-0.057834327
187	0x3e0c0164	0.13672405
188	0x3ea6cbde	0.32577413
189	0xbe9e2e1d	-0.30894557
190	0xbe80188b	-0.25018725
191	0x3e291038	0.16510093
192	0x3ea12d8d	0.31480065
193	0x3d934cff	0.0719242
194	0xbd97b14f	-0.07406866
195	0x3c30d35d	0.01079258
196	0x3e976cda	0.29575235
197	0xbe74bb03	-0.23899464
198	0x3e803a71	0.25044587
199	0xbe768fc5	-0.24078281
200	0xbe004ce8	-0.12529337
201	0x3e95705f	0.29187295
202	0xbe987ec6	-0.2978422
203	0x3e839f40	0.25707436
204	0xbf132143	-0.5747263
205	0x3ea00475	0.312534
206	0xbe5f2fc9	-0.21795572
207	0xbc87a155	-0.016556421
208	0x3e5d4bc2	0.2161093
209	0xbe9db300	-0.3080063
210	0xbe1808ae	-0.14847061
211	0x3f309613	0.68978995
212	0xbde68a3e	-0.11256836
213	0xbeab099a	-0.33405763
214	0x3dd7b74b	0.10533007
215	0xbe588ef9	-0.2114829
216	0xbddaad58	-0.10677594
217	0x3e00cdf2	0.12578562
218	0x3db1f913	0.08690085
219	0x3e400b66	0.18754348
220	0x3e4d8c78	0.20073116
221	0x3e6e4927	0.23270093
222	0xbe874820	-0.26422215
223	0xbe77a355	-0.241834
224	0x3dea135b	0.11429473
225	0x3e2538da	0.16134968
226	0x3e81f795	0.25384203
227	0xbe4f7af6	-0.2026175
228	0xbba9d901	-0.0051833396
229	0xbe9be712	-0.3044973
230	0x3e683511	0.22676493
231	0xbe754512	-0.2395213
232	0xbe08ed12	-0.13371685
233	0xbea30424	-0.31839097
234	0x3e74b992	0.23898914
235	0x3e7ac2c6	0.24488363
236	0xbdbeb1c9	-0.093112536
237	0x3d9f5619	0.07780094
238	0x3e030fa7	0.1279894
239	0x3e897605	0.26847854
240	0x3e849331	0.25893548
241	0xbe7a7493	-0.24458532
242	0xbe2605ac	-0.16213101
243	0xbddc717c	-0.10763833
244	0x3ce3aae0	0.02779144
245	0x3e1ac50c	0.1511423
246	0x3e631562	0.22176126
247	0xbe003cc6	-0.12523183
248	0x3e0588b3	0.13040428
249	0xbe962c2f	-0.29330584
250	0xbce1a0c7	-0.027542485
251	0xbe4925fe	-0.19643399
252	0x3e937744	0.2880193
253	0xbdfc43b1	-0.123175986
254	0xbe56e828	-0.20986998
255	0x3e4210b7	0.18951689

arith.constant4 f4 [1, 32]
0	0xbe4b0989	-0.19827856
1	0x3e85dced	0.26145115
2	0x3e8f6362	0.2800551
3	0x3eda7901	0.42670444
4	0x3d7f543d	0.062336195
5	0x3ec34eba	0.38146
6	0x3e79ac44	0.2438212
7	0xbd167bf8	-0.03673932
8	0x3e9c19da	0.30488473
9	0x3e9c3c04	0.30514538
10	0x3ddc9ef6	0.10772507
11	0x3d8742ac	0.066045135
12	0xbe00de0d	-0.12584706
13	0x3d386be8	0.045024782
14	0xbc2408dc	-0.010011878
15	0x3e747550	0.23872876
16	0x3d5f0c68	0.05445519
17	0xbe903dc3	-0.2817212
18	0xbd35e768	-0.04441014
19	0x3e8525e4	0.2600547
20	0xbe2ff1d2	-0.17182091
21	0x3eaf1807	0.3419802
22	0xbe9958ef	-0.29950663
23	0x3e3f4d10	0.18681741
24	0x3dd84f0d	0.10561953
25	0x3e9a72a8	0.301656
26	0xbe7ffaf2	-0.24998072
27	0xbe73374c	-0.23751563
28	0x3e72c530	0.23708034
29	0xbdce2596	-0.10065763
30	0xbe9844b1	-0.29739907
31	0xbea2fcc8	-0.31833482

arith.constant5 f4 [32]
0	0x00000000	0.0
1	0xb87ac1eb	-5.9785245e-05
2	0xbc1f3f7b	-0.009719725
3	0x3ca72d4e	0.020407345
4	0x3c3488fc	0.011018988
5	0x00000000	0.0
6	0x00000000	0.0
7	0x00000000	0.0
8	0x3c928513	0.01788572
9	0xbae0e07c	-0.0017156745
10	0xbcd00431	-0.025392624
11	0x00000000	0.0
12	0xbd04ad77	-0.03239199
13	0x00000000	0.0
14	0xbbc39a62	-0.0059693316
15	0x00000000	0.0
16	0x3c44fbe1	0.012022943
17	0xbca1bd31	-0.019743534
18	0x00000000	0.0
19	0x3c62bb6b	0.013838629
20	0x00000000	0.0
21	0x3c91ec6a	0.017812926
22	0xbc713ca8	-0.014723934
23	0x00000000	0.0
24	0x3c547c6b	0.012969117
25	0x3c640c91	0.013919012
26	0x00000000	0.0
27	0xbc7428b6	-0.014902284
28	0x00000000	0.0
29	0xbc85729a	-0.016289998
30	0x3cc08ea3	0.023505514
31	0x00000000	0.0

arith.constant6 f4 [24]
0	0x3c8f62da	0.01750319
1	0xbc88f41e	-0.016717967
2	0x3c20cab5	0.009813954
3	0x3c119fbc	0.008888181
4	0x3c00e65c	0.007867422
5	0x3d456cd0	0.048199475
6	0xbc66b0a7	-0.014080203
7	0x3d310963	0.043221842
8	0x3ccd1920	0.025036395
9	0x3b295adf	0.0025841517
10	0xbcceb01c	-0.02523046
11	0x3d3df3ed	0.046375204
12	0xbd0bdd9f	-0.0341469
13	0x3c9f8c2a	0.019476015
14	0xbce376dc	-0.027766638
15	0xbbc83c4e	-0.0061107045
16	0x3c8e84ce	0.01739731
17	0x3ce7fedc	0.028319769
18	0xbd5a1b97	-0.053248968
19	0x3d53a285	0.051668663
20	0xbcad524e	-0.02115741
21	0xbaa6695e	-0.0012696197
22	0x3d30d952	0.043176003
23	0xbd189738	-0.03725359

tfl.pseudo_qconst i1 [24, 3, 3, 12]
0	0xf6	-10
1	0x38	56
2	0xd7	-41
3	0x0f	15
4	0x17	23
5	0x2c	44
6	0x12	18
7	0x65	101
8	0x67	103
9	0x38	56
10	0x7d	125
11	0x1e	30
12	0x4a	74
13	0xe1	-31
14	0xfe	-2
15	0x53	83
16	0x68	104
17	0xcc	-52
18	0x00	0
19	0x3f	63
20	0xed	-19
21	0xee	-18
22	0x74	116
23	0xb6	-74
24	0xe4	-28
25	0x35	53
26	0x2f	47
27	0x63	99
28	0x51	81
29	0xd7	-41
30	0x27	39
31	0x7d	125
32	0xdf	-33
33	0xfe	-2
34	0x1e	30
35	0x24	36
36	0xd9	-39
37	0x18	24
38	0x1f	31
39	0x2f	47
40	0x09	9
41	0x3b	59
42	0x40	64
43	0x1d	29
44	0x4a	74
45	0x27	39
46	0x74	116
47	0xd4	-44
48	0xad	-83
49	0x4d	77
50	0x39	57
51	0x12	18
52	0x4b	75
53	0xe8	-24
54	0x51	81
55	0x19	25
56	0x3c	60
57	0xdd	-35
58	0xef	-17
59	0xb8	-72
60	0xb2	-78
61	0x3d	61
62	0x1d	29
63	0x5b	91
64	0x7b	123
65	0xd3	-45
66	0xd2	-46
67	0x7f	127
68	0xe6	-26
69	0xfe	-2
70	0xf1	-15
71	0x02	2
72	0x3e	62
73	0xbb	-69
74	0x31	49
75	0x58	88
76	0x53	83
77	0x1b	27
78	0x74	116
79	0x2a	42
80	0xf3	-13
81	0x49	73
82	0x5c	92
83	0x34	52
84	0x40	64
85	0x3c	60
86	0x1a	26
87	0xdb	-37
88	0x24	36
89	0xe4	-28
90	0x3e	62
91	0x31	49
92	0xbf	-65
93	0xd9	-39
94	0x6e	110
95	0x0e	14
96	0x1a	26
97	0xaf	-81
98	0xff	-1
99	0x0c	12
100	0xfb	-5
101	0x47	71
102	0x0c	12
103	0x09	9
104	0x16	22
105	0x08	8
106	0x5a	90
107	0xc7	-57
108	0x1e	30
109	0x1c	28
110	0xda	-38
111	0xdd	-35
112	0x03	3
113	0xbf	-65
114	0xe3	-29
115	0xd0	-48
116	0xb3	-77
117	0xc9	-55
118	0x13	19
119	0xc1	-63
120	0x21	33
121	0x24	36
122	0x45	69
123	0xb0	-80
124	0xc0	-64
125	0xdf	-33
126	0xc9	-55
127	0x00	0
128	0x2f	47
129	0x3d	61
130	0xf8	-8
131	0x0b	11
132	0xce	-50
133	0x2a	42
134	0xcf	-49
135	0x17	23
136	0x05	5
137	0x0a	10
138	0x9b	-101
139	0xb5	-75
140	0xc4	-60
141	0x20	32
142	0xad	-83
143	0x35	53
144	0x24	36
145	0x21	33
146	0x25	37
147	0xf2	-14
148	0x2d	45
149	0x0d	13
150	0xd2	-46
151	0xfb	-5
152	0xc5	-59
153	0x37	55
154	0xce	-50
155	0x0d	13
156	0x49	73
157	0x1c	28
158	0x39	57
159	0xc5	-59
160	0xf4	-12
161	0x45	69
162	0x25	37
163	0x27	39
164	0x1e	30
165	0x3b	59
166	0xa6	-90
167	0xb9	-71
168	0xff	-1
169	0x12	18
170	0x41	65
171	0xee	-18
172	0xd8	-40
173	0xe9	-23
174	0x08	8
175	0xd2	-46
176	0xd4	-44
177	0xd8	-40
178	0xd3	-45
179	0xcb	-53
180	0x10	16
181	0xc4	-60
182	0x08	8
183	0x81	-127
184	0x21	33
185	0x27	39
186	0xb9	-71
187	0xca	-54
188	0x05	5
189	0xd8	-40
190	0xd7	-41
191	0xf6	-10
192	0x42	66
193	0xe7	-25
194	0x09	9
195	0x15	21
196	0x03	3
197	0x2c	44
198	0xbf	-65
199	0xa2	-94
200	0x30	48
201	0xef	-17
202	0xcd	-51
203	0x02	2
204	0xca	-54
205	0x1a	26
206	0x10	16
207	0xf6	-10
208	0xb8	-72
209	0xc6	-58
210	0xda	-38
211	0xc2	-62
212	0x22	34
213	0xb5	-75
214	0x09	9
215	0xcf	-49
216	0x0d	13
217	0xd2	-46
218	0xde	-34
219	0x1f	31
220	0x5f	95
221	0x36	54
222	0xe0	-32
223	0x7c	124
224	0x25	37
225	0x11	17
226	0xe1	-31
227	0xee	-18
228	0x1e	30
229	0xd5	-43
230	0x2c	44
231	0xf0	-16
232	0xf9	-7
233	0x1a	26
234	0xdd	-35
235	0x51	81
236	0x39	57
237	0xde	-34
238	0x04	4
239	0x2b	43
240	0xb6	-74
241	0xc1	-63
242	0xcd	-51
243	0x2a	42
244	0x0e	14
245	0xb9	-71
246	0x19	25
247	0xe2	-30
248	0x0c	12
249	0xe6	-26
250	0xfa	-6
251	0x02	2
252	0xef	-17
253	0x0c	12
254	0xcb	-53
255	0xbf	-65
